pytorch_learn/First_Learn/results/weights/nn.pth (torch, 2607 bytes, 6 tensors)

layer1.weight f4 [12, 4]
0	0xbf0437ff	-0.51647943
1	0x3dd0dcdf	0.10198378
2	0xbe4c0982	-0.19925502
3	0xbe0e2509	-0.13881315
4	0xbec1524f	-0.3775811
5	0xbe270e99	-0.16314162
6	0xbec07c39	-0.37594774
7	0xbf417784	-0.7557299
8	0xbea11de9	-0.31468132
9	0xbe67a0c8	-0.22619927
10	0x3d7c8f0e	0.061659865
11	0xbf7ee741	-0.99571615
12	0xbef9bde5	-0.4877769
13	0x3f0ed7f6	0.5579828
14	0xbf35d9a8	-0.7103524
15	0x3d9c30ad	0.07626472
16	0xbdf3f109	-0.11911208
17	0xbe5b0ad2	-0.21390846
18	0x3edc1a93	0.42989025
19	0xbef386dc	-0.47563827
20	0x3def287e	0.11677645
21	0x3ebb3409	0.36563137
22	0xbd6e98dc	-0.058251247
23	0x3dcb64cb	0.09931334
24	0x3f1fa9e2	0.62368596
25	0xbef9d35f	-0.48794076
26	0x3f0d074b	0.55089253
27	0x3f3e3cbd	0.7431143
28	0xbe35cb25	-0.17753275
29	0x3ee9e752	0.45684296
30	0x3d9467bc	0.07246348
31	0xbf27fcfe	-0.6562041
32	0x3e9d12ba	0.3067835
33	0xbec52b04	-0.3850938
34	0xbd66675b	-0.05625091
35	0x3f73f435	0.95294505
36	0xbca7a6f5	-0.020465354
37	0xbee25aaf	-0.4420981
38	0x3f326470	0.69684505
39	0x3ee4d75e	0.44695562
40	0x3e0ffa7c	0.14060396
41	0xbeb6718c	-0.35633504
42	0x3eaca492	0.33719307
43	0x3e926d36	0.28598946
44	0xbf29e951	-0.6637164
45	0x3ea1f68d	0.31633416
46	0x3d0f1b72	0.034938283
47	0x3ed79ed7	0.42113373

layer1.bias f4 [12]
0	0x3f230ea9	0.63694245
1	0xbdfbcf54	-0.12295404
2	0x3eb4e873	0.35333595
3	0x3dbd0512	0.09229483
4	0x3f0e1b92	0.5551082
5	0xbf27ff39	-0.65623814
6	0x3e9d8877	0.30768177
7	0xbea6f23b	-0.32606682
8	0xbe7f5564	-0.24934918
9	0xbecd1ba2	-0.40060145
10	0xbe3614e1	-0.17781402
11	0xbf5d7ac4	-0.8651545

layer2.weight f4 [6, 12]
0	0xbda7d08b	-0.08194073
1	0x3ec96203	0.3933259
2	0x3d7d59eb	0.06185333
3	0x3ec2ccc3	0.38046846
4	0xbe4b86f6	-0.19875702
5	0x3eedf95f	0.46479318
6	0xbe26a5f9	-0.16274251
7	0x3edac226	0.42726249
8	0xbdda7482	-0.10666753
9	0xbe522a04	-0.2052384
10	0xbea50868	-0.32232976
11	0x3e2113c0	0.1573019
12	0xbe97df0c	-0.2966236
13	0xbe950832	-0.29107815
14	0x3ea6f99d	0.32612315
15	0xbe948601	-0.29008487
16	0x3eaf05c8	0.34184098
17	0xbdbff6c2	-0.09373237
18	0x3d9a9746	0.07548384
19	0xbec2e4c2	-0.38065153
20	0x3df068a3	0.11738708
21	0xbdae290f	-0.08503925
22	0xbda77f8d	-0.08178625
23	0xbf1845a6	-0.59481275
24	0xbd9a3430	-0.07529485
25	0x3db009d9	0.08595628
26	0x3ebbef62	0.36706072
27	0x3e7c7db7	0.24657331
28	0xbe4da458	-0.20082223
29	0xbe055fbd	-0.13024803
30	0xbedd9521	-0.4327784
31	0x3f085c42	0.53265774
32	0xbd4f1775	-0.05055948
33	0xbef43538	-0.47696853
34	0xbb1354e0	-0.002248101
35	0xbd89bc90	-0.067254186
36	0xbe0b4853	-0.13601808
37	0xbec8192f	-0.39081714
38	0xbe9cbe77	-0.30614063
39	0xbeaa7dc7	-0.33299085
40	0xbe1f0986	-0.15530977
41	0x3b3deb24	0.0028979266
42	0x3e05e5a4	0.13075882
43	0xbe8f6444	-0.28006184
44	0x3f25081c	0.644655
45	0x3f270e0d	0.65255815
46	0xbd5c30e5	-0.053757567
47	0x3ed36054	0.4128443
48	0xbeb4f630	-0.35344076
49	0xbe9e365e	-0.30900854
50	0xbf0439a4	-0.5165045
51	0xbc22fb87	-0.009947664
52	0xbef17657	-0.471606
53	0x3eab5d3b	0.33469567
54	0x3dc00460	0.093758345
55	0xbe5c262a	-0.21498933
56	0x3ec24a12	0.37947136
57	0x3ef3384a	0.47503883
58	0x3ebf9f67	0.37426302
59	0x3e7cd6f6	0.24691376
60	0x3e837a77	0.2567937
61	0x3e230bd2	0.15922478
62	0x3e9d0066	0.30664366
63	0x3e4f7781	0.20260431
64	0xbe0166dc	-0.12636894
65	0x3eb0f110	0.34558916
66	0xbebeac04	-0.37240613
67	0x3e9e9d1a	0.30979234
68	0xbe9901b9	-0.29884127
69	0xbed644fb	-0.41849503
70	0xbe709323	-0.23493628
71	0x3e8e9673	0.2784916

layer2.bias f4 [6]
0	0xbeb7101c	-0.35754478
1	0x3e6c1222	0.23053792
2	0xbdc7a13f	-0.09747552
3	0xbefa21c2	-0.4885388
4	0xbe8308d3	-0.2559267
5	0xbe06e44c	-0.13173026

layer3.weight f4 [3, 6]
0	0x3e8a5c41	0.2702351
1	0xbf0723da	-0.5278908
2	0x3edc2f41	0.43004802
3	0xbefdd2f7	-0.49575016
4	0xbe1f9a70	-0.15586257
5	0x3f11a25d	0.5688837
6	0xbf065c66	-0.5248474
7	0x3edd0e04	0.43174756
8	0xbe6b12c8	-0.22956383
9	0xbec04251	-0.37550595
10	0xbf01458a	-0.50496733
11	0xbe8c6164	-0.27418053
12	0xbeb187af	-0.3467383
13	0xbe020a0b	-0.12699144
14	0xbefb4107	-0.4907305
15	0x3f19b4c5	0.6004146
16	0x3f23cdd6	0.63985956
17	0xbe84cade	-0.25936025

layer3.bias f4 [3]
0	0xbe5e0e31	-0.21685101
1	0x3d830a24	0.063984185
2	0x3e1429c6	0.1446906
